dlo-manipulator/logs/best_model_ddpg/policy.pth (torch, 168413 bytes, 22 tensors)

actor.mu.0.weight f4 [64, 84]
000000 2c e7 4e 3d 73 58 34 3d 19 94 96 bd 28 16 9a 3d
       0.05051343 0.044029664 -0.07352466 0.07523757
000010 46 ab 8f bd 21 b0 2f bd 19 33 ce 3c c0 10 2e bc
       -0.0701509 -0.04289258 0.02517085 -0.010624111
000020 ff 3f 55 3d 11 1e 28 bd 8e 66 89 3b cd ae a1 bd
       0.052062985 -0.0410443 0.0041931337 -0.07894669
000030 89 97 a2 bd bc 6a b2 3d 41 50 80 bd d7 de 60 3c
       -0.07939059 0.08711764 -0.06265307 0.013725004
000040 01 86 87 3d 14 a6 6d bc 78 ed 6f 3c df dc 80 bd
       0.06617356 -0.014504928 0.014644019 -0.06292128
000050 d5 30 04 3d 0a d0 ce bc ad c2 22 bd 2a f2 74 3d
       0.032273132 -0.025245685 -0.03973644 0.05980126
000060 0b 40 96 bc 21 66 43 3d 5c c2 cc bc eb e8 69 bd
       -0.018341085 0.04770482 -0.024995022 -0.057106894
000070 b8 4b 69 bd 4c f8 77 bd 98 f7 c4 bd 99 fb ea bc
       -0.056956977 -0.06053953 -0.09617537 -0.028684424
000080 6d de 67 3d 42 48 8e bd 59 8e f8 3c 15 05 89 bd
       0.056608606 -0.06947376 0.030341314 -0.066904224
000090 66 1f c1 bd 97 fb d2 3d 50 e6 9c bd ba 39 29 bd
       -0.09429817 0.10301893 -0.07661116 -0.041314818
0000a0 9b ce e2 bd a5 5c d0 bd 87 09 a1 3d dd 5a 3a bc
       -0.11074563 -0.101739205 0.07863145 -0.011374203
0000b0 ac 4d 83 bd 7b 12 5b 3d 39 83 35 3d 1c a8 85 bd
       -0.06411299 0.05348442 0.044314597 -0.06526205
0000c0 7c 59 2a bc d9 28 c1 3c 52 34 08 3c f5 5f 97 3d
       -0.010397311 0.023579048 0.008313255 0.07391349
0000d0 b7 d4 2b bd 9f 9c 32 3d 61 8d 4e 3d c5 2f c5 bd
       -0.041950908 0.043606397 0.0504278 -0.09628252
0000e0 53 b8 b2 3b 6f 47 b1 3c a6 7c 9b 3d 6d b9 1e 3d
       0.005454102 0.021640508 0.07592134 0.038751055
0000f0 02 c8 69 3d f3 df 48 bc 4d 44 93 3d ba f9 d1 3c
       0.057075508 -0.012260425 0.07190762 0.025631774
000100 48 18 53 bd c3 72 07 bd 72 29 cb 3d 29 4e 28 3d
       -0.05153683 -0.03306843 0.099200144 0.041090164
000110 fa 36 cb 3a 49 42 ae 3d 0a bb e5 3b 64 40 03 bd
       0.0015504055 0.08508737 0.007010822 -0.03204383
000120 d0 38 a3 3d ec 4c b8 3d 40 cc 76 3d f1 77 d0 bd
       0.079698205 0.08999047 0.06025338 -0.10179127
000130 f0 54 a9 bc 54 6b 26 3d 76 cd 00 3c 58 b2 9e 3d
       -0.020670384 0.0406297 0.007861486 0.0774886
000140 2c fd d5 bd 68 c1 b7 bd c0 c1 b5 bd b8 2e 04 bd
       -0.10448679 -0.08972436 -0.088748455 -0.032271117
000150 34 89 d0 3c 0a fc 97 bd 2f b0 97 3d c6 8e d0 bd
       0.025456049 -0.074211195 0.07406651 -0.10183482
000160 e9 e9 a9 3d 4e 12 d0 bd d1 e0 97 3d 2f da 96 bd
       0.08296568 -0.10159741 0.07415927 -0.07365834
000170 76 07 86 bd 80 76 c9 ba ea d4 11 3d 10 dc c5 3b
       -0.06544392 -0.0015370399 0.03560344 0.0060381964
000180 70 2d e5 bc 0a 02 9d bd 84 3e 86 bd e3 61 59 bd
       -0.027975768 -0.076664045 -0.06554893 -0.053071868
000190 72 0a 68 3d 2c f3 a4 bd 58 39 28 bd 42 2d 3d bd
       0.056650586 -0.08054194 -0.041070312 -0.04618574
0001a0 78 f8 31 bc 28 22 33 3c 2e 58 2c bd 72 f3 c7 bd
       -0.010862462 0.010933436 -0.042076282 -0.097632304
0001b0 a4 55 d2 3c 0a 97 68 3d 71 e4 d6 3d 42 2d 70 3d
       0.025675602 0.056784667 0.104927905 0.05863691
0001c0 a7 3a 8c 3d 3c f0 72 bd 39 88 cd bd 1e b1 c7 bd
       0.068471245 -0.059311137 -0.10035748 -0.09750579
0001d0 94 e5 b7 3c e6 6c 4a bd 70 0a 90 bc 81 f4 ae 3d
       0.022448339 -0.04942026 -0.017583102 0.08542729
0001e0 54 56 9b 3c de 10 1f 3d 72 c3 3c 3d 9c 92 c0 3c
       0.018962063 0.038834445 0.04608483 0.023507409
0001f0 d2 69 72 3d 20 a1 73 bb 7e a1 80 bd ac 49 a9 bd
       0.05918295 -0.0037174895 -0.06280802 -0.08266005
000200 c8 d1 8d bd 08 fe 9e bc 08 fd 1a bc 12 c1 86 bd
       -0.06924778 -0.01940824 -0.009459741 -0.06579794
000210 05 46 96 3d cd 25 d3 bd a4 f5 f2 3c ad 4e 6d bd
       0.07337574 -0.10309944 0.029658146 -0.05793636
000220 f0 95 9d bc 45 a4 dd 3d 3f 92 82 3d 9a 4a 2a bd
       -0.019236535 0.108223476 0.063755505 -0.04157505
000230 bc 8c c1 3c de 91 1c bd 20 c9 5b 3b 7a 93 ce bd
       0.023626678 -0.038225047 0.0033536628 -0.10086723
000240 60 88 a9 bb df 25 de 3d a2 88 6f bd f2 a3 39 3d
       -0.005173728 0.10847067 -0.058479913 0.045322366
000250 cd e0 db 3d 8c ce a7 bd 60 d7 27 bb fa 36 5a 3d
       0.10736237 -0.081936926 -0.0025610551 0.053275086
000260 a8 2b 48 3c 1e 81 27 3d 45 20 bd 3d 50 a8 2e bd
       0.01221744 0.04089462 0.092346705 -0.042640984
000270 02 65 0c bd ad 54 b8 3d cc 8d 81 bd 18 17 6a bd
       -0.034276016 0.090005256 -0.06325874 -0.05715093
000280 77 51 91 3d bc 0e d7 bc b6 3b 02 3d a4 1e d8 3c
       0.07095616 -0.026252143 0.031795226 0.026381798
000290 fa 4a 2c bd e9 31 93 3d 39 e7 88 3d 28 5c 53 bc
       -0.04206369 0.07187254 0.06684727 -0.01290039
0002a0 b8 85 d8 bc 5c 4b dc 3c 86 92 17 bd f0 d7 81 bc
       -0.02643095 0.026891403 -0.03700497 -0.015850037
0002b0 e2 22 42 3d dc 36 eb bc 27 48 a3 3d 6f b8 85 3d
       0.047396548 -0.028712682 0.07972746 0.065293185
0002c0 32 9c 76 bd 1d 15 4c bd 70 74 e3 bc 73 cf a3 3d
       -0.060207553 -0.049824823 -0.027765483 0.07998552
0002d0 40 7a 59 bc 04 af d2 bd 73 12 c0 3d 97 f5 4d bd
       -0.013273776 -0.10287288 0.09378519 -0.05028304
0002e0 e6 18 68 bd 82 66 c0 bd 9a 48 59 3d 8c 42 c2 bc
       -0.05666437 -0.09394552 0.053047754 -0.023713373
0002f0 68 ab af bc 2a bb 5c 3d e0 03 15 bc c4 ff 3a bd
       -0.021444038 0.05388943 -0.009095162 -0.045654073
000300 f4 fe ca 3c 2a ba 9b bd 40 79 f4 bc c2 0f 55 3d
       0.024779774 -0.07603867 -0.029842973 0.05201698
000310 22 6f 19 3d 13 70 a2 3d 1b c3 9d 3d 82 18 2f 3d
       0.0374595 0.07931533 0.07703229 0.04274798
000320 7e ef 72 3d 1c 1f 48 bd 7c 4c c1 3c e6 15 18 3d
       0.05931043 -0.048857793 0.02359604 0.03713026
000330 98 ea db bd 54 2c 98 bd f2 f8 0d 3d 04 8e b5 3c
       -0.107381046 -0.0743033 0.03466124 0.022162445
000340 f2 5e bb bd 38 7d 18 bd 1c 0e f8 bc 52 bf 15 3d
       -0.09148969 -0.037228793 -0.030280165 0.03655941
000350 64 51 8c bd 7f d2 bd 3d 7f c8 c5 3d 50 51 d6 bd
       -0.068514615 0.092686646 0.09657382 -0.10464728
000360 8a eb c0 bd 40 03 73 3c 1c ca ff bc 01 22 9e bd
       -0.094199255 0.014832318 -0.031224303 -0.077213295
000370 58 2d 47 bc fd aa 67 bd 10 1c a1 3b 87 7f be bd
       -0.012156807 -0.05655955 0.0049166754 -0.09301668
000380 00 57 21 bb c1 db b1 3d 5a 7f 0a 3d a8 7e 30 bd
       -0.0024618506 0.08684493 0.03381286 -0.04308954
000390 c1 da 89 3d 07 63 aa 3d 95 89 9f 3d c2 49 c4 bd
       0.06731177 0.08319669 0.077899136 -0.09584381
0003a0 35 6b d6 3d e7 32 95 3d 00 53 f5 bb 47 fb ad 3d
       0.10469667 0.072850995 -0.007486701 0.08495193
0003b0 29 ff 52 bd 1e 7d 8b bd 9b 62 97 3d d4 c1 82 bc
       -0.05151287 -0.068109736 0.073918544 -0.015961565
0003c0 b0 b2 ff bc 48 9a 9f bd 88 e5 3d bd 2e 47 25 bd
       -0.031213135 -0.07793099 -0.046361476 -0.040351085
0003d0 88 c0 60 bd a1 29 47 bd c0 5e 2b 3c 27 97 c7 3d
       -0.054871112 -0.048623685 0.010459602 0.09745627
0003e0 5d 66 91 3d 02 61 4b 3d a1 64 8b 3d d2 4e 2b 3d
       0.07099602 0.04965306 0.06806303 0.041823216
0003f0 ea 48 bc 3d ba b5 7b bd 9c 21 95 3d 31 55 b2 3d
       0.09193595 -0.061452605 0.07281801 0.08707655

actor.mu.0.bias f4 [64]
000000 47 ce 60 38 ea 30 17 bd 94 04 9c bd e1 17 3b 3c
       5.3597872e-05 -0.036911882 -0.07618061 0.011419267
000010 af a2 5e bd 2a b4 03 3d 56 9c 3d bd 7c d7 2f 3d
       -0.054354366 0.03215424 -0.04629167 0.04293011
000020 95 4b a3 bd 14 cc e0 bc 04 4d 3a 3d 35 98 ae bb
       -0.079734005 -0.027441062 0.045483604 -0.005328203
000030 e4 9d 81 3c 1d 2e e9 3b 4d 6a a6 3d 00 06 0e be
       0.015822358 0.007116093 0.08125744 -0.13869476
000040 ec 21 8c 3d 1d 4a f6 bc 94 dd a0 3c a6 27 92 3d
       0.068424076 -0.030064637 0.019636907 0.071364686
000050 29 70 9c bd 50 d5 3a 3d 45 21 38 3d 8f 70 5b 3d
       -0.0763858 0.045613587 0.044953603 0.05357414
000060 56 3e 22 3c ab 11 0c 40 4d 22 b5 bd 00 35 42 3d
       0.009902557 2.1885784 -0.08844433 0.047413826
000070 6c 88 70 bc 30 e4 4f 3d e0 1e 20 3d a7 05 25 bd
       -0.014680963 0.050754726 0.039091945 -0.040288594
000080 11 48 e8 bd ec 77 0a bd 7b 24 d6 bd 69 33 7c 3d
       -0.113418706 -0.033805773 -0.10456177 0.061572466
000090 23 26 04 3d 7b e4 eb bc 5a 36 f4 3c 49 4b 8f bd
       0.032262933 -0.028795471 0.029811073 -0.069967814
0000a0 fe 2b 4e 3d 92 33 02 bd 1b b0 d9 3d 36 60 04 bd
       0.050334923 -0.031787463 0.106292926 -0.032318316
0000b0 63 e5 e5 bd c3 41 6f 3c 80 a9 f7 3a 18 ab 15 bd
       -0.11225393 0.014603081 0.001889512 -0.03654012
0000c0 f2 85 38 3d a2 29 be 3c 7e 8c 8d 3f b8 62 eb bc
       0.045049615 0.023213211 1.10585 -0.028733596
0000d0 c6 65 da 3e a1 3b 56 3c 01 58 ad bc 10 2a d9 bd
       0.42655772 0.01307574 -0.021160128 -0.10603726
0000e0 0a 7a 15 3d 37 5f 93 bd 46 e5 00 3d 8c 4d cd bc
       0.03649334 -0.07195895 0.031468652 -0.025061391
0000f0 02 a1 6b 3d 05 89 c7 bd 4c 4e 1f bd f8 f6 29 bc
       0.057526596 -0.09742931 -0.03889303 -0.010373823

actor.mu.2.weight f4 [64, 64]
000000 b6 3f 82 bb 20 71 5d 3c 1c 3e b0 3d f8 72 98 3d
       -0.00397488 0.013515741 0.086055964 0.074438035
000010 fb 5d df bc 62 80 c3 bd 49 c5 bc bc f4 a9 d3 3d
       -0.027266493 -0.095459715 -0.023043292 0.1033515
000020 89 fe 7a 3a d7 73 0c 3e de 4d cc 3d 23 91 30 bd
       0.0009574672 0.13716064 0.099757895 -0.043107163
000030 30 db 33 3c d7 90 cf bd 36 28 fb 3d 2d 5a 65 3d
       0.010977551 -0.10135048 0.12263529 0.0559942
000040 c2 12 5b bd 0b 25 81 bd e8 48 68 bd 26 a7 d9 3d
       -0.053484686 -0.063058935 -0.056710154 0.10627584
000050 07 2b 4a 3d 02 a6 a0 3d 50 08 ce bc 34 3b e0 3d
       0.04935744 0.078441635 -0.025150448 0.10948792
000060 5b f1 85 bd cc 3e e4 3f 60 07 f5 3b 67 2a 3b bd
       -0.065401755 1.7831664 0.007477686 -0.045694735
000070 fa d8 45 3d 85 e0 c1 3d cb 13 8e bc b1 0e dd bd
       0.048302628 0.09466652 -0.017343422 -0.10793818
000080 cb 3a 82 bd d3 69 90 3d da a7 15 3e ab ff 21 bb
       -0.0635887 0.07051434 0.14614812 -0.002471904
000090 91 18 77 3d 3c a8 a3 bc 93 35 3a bd 9d 4a 04 3c
       0.060326163 -0.019977681 -0.04546125 0.00807443
0000a0 e8 78 cb bb 15 7c 83 3d 08 50 96 bc b8 1d 59 bb
       -0.0062094815 0.06420151 -0.018348709 -0.0033129286
0000b0 78 9c 3d 3d 47 cf dd 3d 70 b3 20 bd d8 e0 0f bd
       0.0462918 0.10830551 -0.039233625 -0.035126537
0000c0 78 ec 36 bd 0d d5 9a bc 72 c1 27 3f a2 fe cc bd
       -0.044659108 -0.018900419 0.6552955 -0.10009505
0000d0 e2 59 87 bf 3c bd b8 bd fc 65 61 3d e2 0d a7 bd
       -1.0574305 -0.090204686 0.0550289 -0.08156945
0000e0 54 c7 26 bd bb cc ce 3d 60 b9 97 bb f2 96 ea 3d
       -0.040717438 0.10097643 -0.0046302527 0.11454572
0000f0 38 01 bd bd e3 ab 66 3d c6 40 bf 3d ce a6 b7 3d
       -0.09228748 0.056316268 0.093385264 0.08967362
000100 1c 28 fc 3d bc cd 57 3d d0 1e 10 3c 31 4c 9e bd
       0.12312338 0.052686438 0.008796409 -0.07729376
000110 fe 44 90 bd 1c 4a 0b bd 0f 90 dc 3d 58 c1 7c bd
       -0.07044409 -0.034006223 0.107696645 -0.061707824
000120 23 45 94 bd 45 9d ab 3d 0b 97 34 3b 45 16 e6 bc
       -0.07239749 0.08379606 0.002755585 -0.02808679
000130 34 96 d7 bd 29 1f 23 bc c0 15 73 3b 15 d9 f3 bd
       -0.10526696 -0.00995616 0.0037091821 -0.119066395
000140 fa f0 4d 3d 93 13 70 3d 4a 8c e3 bd 14 fd 1e bd
       0.05027864 0.058612417 -0.111107424 -0.038815573
000150 1c e5 77 3d d5 5d b8 3d d8 cd 9b 3c d3 06 de 3d
       0.06052123 0.09002272 0.019019052 0.10841145
000160 6a 19 70 3d 1c f7 31 c0 f8 12 c0 bc 7c a2 a5 bd
       0.058617987 -2.7807074 -0.023446545 -0.08087632
000170 1b 1a 54 3d 16 5c e9 3c bd ab 8d bb 91 97 28 3d
       0.05178271 0.028486293 -0.0043234513 0.04116017
000180 de 99 af 3d 80 03 8b 3d 11 74 c0 bd f4 e3 d6 bd
       0.0857427 0.06787777 -0.09397138 -0.10492697
000190 32 59 07 be 03 bf 20 bd c4 f7 82 3d c7 1e aa bd
       -0.13217619 -0.039244663 0.06394914 -0.083066516
0001a0 f3 3e 82 bd 35 0e a7 3d f8 59 d9 3d 50 ff 94 bd
       -0.06359663 0.08157007 0.10612863 -0.072752595
0001b0 f1 31 e0 3a 8c 1f d7 3d 00 12 82 3d 00 f7 31 3a
       0.0017104727 0.10504064 0.063510895 0.000678882
0001c0 38 f3 c0 3c b4 e3 89 3c e8 b7 53 3f f4 5d be 3d
       0.023553476 0.01683221 0.82702494 0.09295264
0001d0 b1 71 97 bf 19 17 b8 3d e3 f6 aa 3d f0 f9 1b 3d
       -1.1831571 0.089887805 0.08347871 0.038080156
0001e0 68 27 b0 3d 05 6e 02 3d f0 b9 01 bd b4 6c cf bd
       0.08601266 0.031843204 -0.031671464 -0.10128155
0001f0 8b ca cd 3d e1 ba 3b bd 75 56 be bb e8 f5 f0 3d
       0.10048398 -0.04583252 -0.0058086463 0.11765653
000200 6c 04 1d bd a0 3b d2 3c b8 68 f8 bc dc fd 61 3d
       -0.038334295 0.025663197 -0.030323371 0.05517374
000210 84 49 87 3d 70 45 30 bd a0 7e 07 be 81 8c 1e 3d
       0.06605819 -0.04303497 -0.13231897 0.038708214
000220 cd f4 cc 3d 8c 66 06 be 76 a7 dc bd e7 c3 79 3d
       0.100076295 -0.13125056 -0.10774128 0.060977843
000230 70 8b 7b bc b0 4f 91 bd 40 cd fb 3d f6 62 e5 bd
       -0.015353069 -0.07095277 0.12295008 -0.11200516
000240 ff b9 c3 3d 77 1e b6 3d cc 1a f1 3d ce 53 3b bd
       0.0955696 0.088925295 0.11772689 -0.04573422
000250 ba e6 56 bd a8 29 a5 bd 7e 42 fa 3c ba 32 d5 3d
       -0.05246613 -0.08064586 0.030549284 0.10410066
000260 08 00 0b bd 7b 13 ee bf ac 5d cb 3d e4 15 34 3b
       -0.033935577 -1.8599695 0.09929976 0.0027478868
000270 11 2a 32 3d f4 2d c2 3d fc 68 08 bd 14 c4 86 3d
       0.04349715 0.09481421 -0.033303246 0.06580368
000280 21 21 8a bd 6c 06 e5 bc 68 38 8a bd e9 ca 88 bd
       -0.067446 -0.027957164 -0.0674904 -0.06679327
000290 5e e4 e1 3d d1 96 ed 3b 51 d1 00 bc e4 a3 93 3d
       0.11029886 0.0072506447 -0.007862405 0.07208994
0002a0 0c 1c 8c bd 7b b4 24 3d 20 65 74 bd 53 ee 14 3d
       -0.06841287 0.040211182 -0.059666753 0.036360096
0002b0 2c 70 02 be 74 9c cb bd 90 7c 0b 3c f8 63 66 3d
       -0.12738103 -0.099419504 0.008513585 0.05624768
0002c0 60 92 0b 3c d8 29 b0 bd 70 71 b2 be 68 b3 9c 3c
       0.008518785 -0.08601731 -0.3485217 0.019128516
0002d0 7e db ec 3e 85 2f e7 3c 92 53 27 bd 6b 68 ab bc
       0.4626121 0.028220901 -0.040851183 -0.020923814
0002e0 40 e7 55 3c 18 74 62 bd 60 c1 ed bd 6f d6 2b bc
       0.013055623 -0.055286497 -0.11609149 -0.010488137
0002f0 9c d3 b3 bd af d4 ef bc 53 4b c5 3d 40 b8 aa 3d
       -0.08780596 -0.02927622 0.096335076 0.08335924
000300 0e 65 be bc 02 b8 e5 bd 40 1e 22 3c 78 ee 1c 3d
       -0.023241546 -0.11216737 0.0098949075 0.03831336
000310 70 96 bd 3c 5c 75 bf 3d c9 34 89 3c 40 e4 6c bd
       0.023143023 0.093485564 0.016748803 -0.057834864
000320 4f fa 17 3e 30 11 9c 3d 82 c8 ff 3d 48 98 02 3e
       0.14841579 0.07620466 0.12489416 0.12753403
000330 3e 34 e6 3d 8e c2 8c bd a8 d5 f6 3c 03 04 8c bc
       0.11240433 -0.06873046 0.030131176 -0.017091757
000340 f5 81 e1 3c 12 47 81 3d 8c f5 05 3d d4 ff 5c 3d
       0.027527789 0.06312384 0.032704875 0.053954914
000350 0f 4c 34 3e bd 70 83 3d c0 be cd 3d 7a da 27 3e
       0.17607139 0.064179875 0.10046148 0.16391936
000360 73 d6 aa bd 74 6a 86 bf b2 18 ac 3d 9e b9 46 bd
       -0.08341684 -1.0501237 0.08403148 -0.048516862
000370 a6 1d db bc 4c 81 87 3b 5e 8e 1f bd 1a 70 9a bd
       -0.026747536 0.0041352864 -0.03895413 -0.07540913
000380 d0 1c c2 3d 8a 55 5b bd 94 c2 06 3e 10 ac dc 3d
       0.09478152 -0.053548373 0.13160163 0.10775006
000390 76 73 05 3e ea 87 ee bc 38 da bd bd fe a5 8a 3d
       0.13032326 -0.029117543 -0.092701375 0.06769942
0003a0 30 4f 31 bd 85 d4 07 3e 94 7d 2d 3d 78 68 54 3c
       -0.04328841 0.13264664 0.04235609 0.01296436
0003b0 2a 72 37 3e 06 6e 95 3d 20 1f e1 3b 48 73 f1 bc
       0.17914644 0.07296376 0.0068701655 -0.029473916
0003c0 3e ba f2 3d 55 ab c2 3c 12 32 97 bf 2e 98 98 3d
       0.11851929 0.023763338 -1.1812155 0.07450901
0003d0 b6 82 20 c0 65 f1 06 3d e6 ad b6 bd 2f 3e a1 bc
       -2.507978 0.032945056 -0.08919887 -0.019682972
0003e0 e0 bb 1c 3d d2 c6 8f 3d d0 dd db bd 7d ce f4 39
       0.03826511 0.07020344 -0.10735667 0.00046693152
0003f0 9c 28 0a bd b0 b5 a7 3c c6 78 be 3d 4e ed 9c 3d
       -0.033730134 0.020472378 0.093003795 0.0766245

actor.mu.2.bias f4 [64]
000000 20 cb 14 be b1 83 8d be 8a ad cc 3f 33 af e8 3f
       -0.14530611 -0.27639535 1.599046 1.8178467
000010 30 70 5d 3f 41 57 29 3f 81 0e 8e 3e 9b 33 ae 3f
       0.8649931 0.66148764 0.2774544 1.3609499
000020 b1 ac d9 3f 5d f7 a5 3e ea 67 fa 3d fd 4e 21 bf
       1.7005826 0.32415286 0.12226851 -0.6301115
000030 2f 29 85 bd 82 c9 00 c0 80 f0 8a bd 0a f6 5c bf
       -0.06501996 -2.012299 -0.06784153 -0.86312926
000040 90 ff 58 bc ac 82 7b bd 6e 9b f0 bc c6 8f ef bd
       -0.013244525 -0.061403915 -0.02937099 -0.116973445
000050 d5 b2 af 3e cf 4b 23 be 36 c5 37 bc 09 c0 93 bd
       0.34316126 -0.15946887 -0.011216452 -0.07214362
000060 98 dc 10 bc 34 cb 1f 3d 85 d6 7c bf 87 67 d1 bf
       -0.008841656 0.03901215 -0.9876483 -1.6359719
000070 98 c7 cb bf a2 cb be 3e ba 15 6e bb c0 02 a8 bd
       -1.5920286 0.37264735 -0.0036328868 -0.082036495
000080 64 c4 0c 3d 34 40 31 3f 66 bb bb bd 7d 63 b1 3c
       0.03436698 0.6923859 -0.09166603 0.021653885
000090 dc fd 0d bd 75 df 1b bd 26 e0 0b 3e 01 f9 53 bb
       -0.034665927 -0.038054902 0.13659725 -0.0032344463
0000a0 19 70 89 3f bf 40 95 3f ce 92 a6 3f 45 6d 9a 3f
       1.0737334 1.1660384 1.3013551 1.2064596
0000b0 c9 79 82 bf ab ac 23 3f 5f bb aa bf a9 b2 88 3d
       -1.0193416 0.63935345 -1.3338431 0.06674702
0000c0 3c 5e 56 bf 8b 90 8e 3c 68 69 87 be 86 41 4b bf
       -0.8373754 0.017402908 -0.26447606 -0.79396856
0000d0 dd 49 5c bf 66 1d 82 bf 46 01 97 bd bb b2 28 bf
       -0.86050206 -1.0165222 -0.0737329 -0.6589772
0000e0 2d 50 1b be 14 43 33 bf 0d 30 da 3e 46 e4 ab 3f
       -0.15167303 -0.7002423 0.42614785 1.3429039
0000f0 a8 a9 cf bf 15 87 ad bf ed 00 ad 3f e5 e2 ff bb
       -1.622365 -1.3556849 1.3515908 -0.0078090304

actor.mu.4.weight f4 [6, 64]
000000 4c 80 2d 3e dd 2d 66 bf 7e 2e a9 bf b4 d8 04 40
       0.16943473 -0.8991373 -1.3217313 2.0757265
000010 d3 33 84 bf e0 a2 e7 3f ba a3 8a bf eb 09 a1 bf
       -1.0328315 1.809658 -1.0831215 -1.2581152
000020 a9 35 3a bf 34 cb 96 3f 3d 9b 8b 3e 2e f3 22 40
       -0.7273813 1.1780763 0.27266875 2.5460925
000030 86 f9 19 3e 60 54 b3 bf 06 d3 fd 3d f9 35 82 40
       0.15036592 -1.4010124 0.12393765 4.0690885
000040 0b d3 58 bd 9e 76 8a bd 0e b6 95 3d ff df c4 3d
       -0.05293564 -0.06760906 0.07310115 0.09613036
000050 2e 96 f9 3e 24 9c 5f bd cf a7 6d bd b3 c7 6f 3d
       0.4874739 -0.054592267 -0.058021363 0.058540057
000060 86 cc 4b 3c 02 11 69 be 43 63 85 40 43 f4 d7 be
       0.012438899 -0.22760394 4.168367 -0.42178544
000070 df 07 22 3f 02 33 28 bf 5d bd bc bd 0d 21 13 bd
       0.6329326 -0.6570283 -0.09215806 -0.03592019
000080 8a 4c 39 be b4 91 18 40 b0 e3 c2 bc 45 d2 02 bf
       -0.18095604 2.383893 -0.02379021 -0.51102096
000090 0d 1e 2f bd bb 8d af bc f3 d9 be bf c3 8a 35 bd
       -0.042753268 -0.021429887 -1.4910263 -0.044321787
0000a0 0b 9d 6a 3f 57 ab 29 c0 5a 28 f8 bf 23 cf 76 bf
       0.9164588 -2.6510828 -1.9387314 -0.96409816
0000b0 15 7f b2 3e 4e f1 c7 3f bc 26 b6 3f 6f ed 0c c0
       0.3486258 1.5620515 1.4230571 -2.2019918
0000c0 a7 92 fa bd 7d 7a 90 40 f8 a2 d1 be 59 80 cb bd
       -0.12235003 4.514952 -0.40944648 -0.0993659
0000d0 97 c8 bb 40 01 54 8c bf f8 6f 8a bd 58 9e 0f 40
       5.868236 -1.0963136 -0.067596376 2.2440395
0000e0 10 f3 1e bd 84 d6 51 bf 44 88 d3 be bd c3 03 bf
       -0.03880602 -0.8196795 -0.413149 -0.5147055
0000f0 83 b6 9f 3f da 5e ab 3d 45 38 3b 40 bc e9 35 3d
       1.2477573 0.08367701 2.9253094 0.04441236
000100 a9 34 c8 40 78 e9 43 c0 14 82 dc 3f d0 3f ba bf
       6.2564282 -3.0611248 1.7227197 -1.4550724
000110 0a 19 95 3e cc d3 5b 3f cd 60 94 bf 25 70 4c 3f
       0.29120666 0.8587005 -1.1592041 0.7985862
000120 5e a8 fa 3f 9d 27 2e c0 5e 4c 32 3f c4 9c 14 3f
       1.9582632 -2.7211678 0.6964778 0.58051705
000130 66 d1 10 3d de 76 bc 3f 12 11 9b 3d 59 8f 03 bf
       0.035355948 1.4723775 0.07571615 -0.51390606
000140 5b 91 cf bc e0 1a 08 bd fb ac d5 3d 4b e1 b0 3b
       -0.025337866 -0.033228755 0.10433384 0.0053979508
000150 6d 65 14 c0 fb f3 07 bd 56 c5 b9 3d b8 a7 18 3e
       -2.3186905 -0.033191662 0.09070842 0.1490773
000160 8b 8a 96 bd 37 fc 33 3f c8 2c d4 bf 38 39 84 c0
       -0.07350644 0.70306724 -1.6576166 -4.1319847
000170 06 53 ca 40 38 4d 39 3e 60 9e 0b be 4c 1d 03 3e
       6.3226347 0.18095863 -0.13634634 0.12804145
000180 f1 37 68 3f 2e b2 f5 c0 6f d1 9b 3c aa 34 2b bd
       0.9071036 -7.6780005 0.019020764 -0.04179827
000190 1b 84 ab bc b1 65 e7 3d 3c cd 82 bf 9b c2 69 3d
       -0.020937016 0.11298693 -1.0218883 0.057070356
0001a0 93 15 79 c0 6c 25 e3 bf 8b 04 e1 bf 30 3e d2 3f
       -3.8919418 -1.7745795 -1.7579511 1.6425228
0001b0 d3 78 9d 3f 48 fb 82 be e2 2f 6c 40 73 af 4a c0
       1.2302498 -0.25582337 3.6904225 -3.1669586
0001c0 a1 cf 0f bf 70 a0 82 bd 51 37 bc 3c 0e a7 7d bf
       -0.5617619 -0.06378257 0.022975596 -0.9908303
0001d0 cc d8 d3 3f 86 a3 e8 bf 2c 17 0e 3e 39 a6 08 bf
       1.6550536 -1.8174903 0.13876027 -0.53378636
0001e0 3c 89 86 bc 0f a9 01 3f 69 d1 d3 3f e2 cb 07 3f
       -0.01642286 0.5064859 1.6548282 0.53045475
0001f0 80 b7 f0 bf b3 cd 3a be d0 80 4d bf 16 f4 58 bb
       -1.8806 -0.1824253 -0.8027468 -0.003310447
000200 f7 33 3c bd 85 98 2c 3f 33 58 43 bf 33 f4 92 c0
       -0.045947995 0.67420226 -0.76306456 -4.5923095
000210 3f c7 44 bd 74 f8 be be 00 8a 7e bf d3 6b 13 3e
       -0.04804158 -0.3729893 -0.9942932 0.143966
000220 9a 5b 8c 3f 73 ef 74 3f 6f 5d d9 3d 59 13 4a bf
       1.0965455 0.9567787 0.10613524 -0.7893577
000230 22 f2 e9 3b fe 36 54 3f 84 01 77 bd 31 4e 91 bf
       0.00713946 0.8289641 -0.06030418 -1.1351987
000240 3a 81 61 bd a4 82 8d 3d 8d 0a 97 bd 8d 8b 11 3a
       -0.05505488 0.06909683 -0.07375059 0.0005552106
000250 41 8c 8c 40 71 94 ec bd 37 8b 9d 3d 73 b3 91 3d
       4.392121 -0.115517505 0.07692569 0.07114305
000260 84 9a f4 bc 6c c8 80 be ea d5 00 3f ff 63 c1 3f
       -0.029858835 -0.2515291 0.50326407 1.5108641
000270 27 58 84 40 11 f4 95 3a e9 81 53 bd 40 fa c6 bd
       4.135761 0.0011440535 -0.051637564 -0.097157
000280 7c 30 b9 bd 72 cb da 3f 06 68 56 bc 36 c6 92 3f
       -0.09042451 1.7093337 -0.013086325 1.1466739
000290 7b f9 a6 bd 9c 10 eb 3c 66 bc ce bf d5 0d 81 3c
       -0.081530534 0.028694443 -1.6151245 0.015753666
0002a0 02 a1 e4 3e 77 46 1b bf b3 69 51 c0 f1 7e 30 3e
       0.4465409 -0.60654396 -3.2720764 0.17235924
0002b0 9b 84 52 3f be 26 13 3f f8 b2 99 3f cf a2 90 bd
       0.8223359 0.5748099 1.2007742 -0.07062303
0002c0 39 24 e8 be 8d b0 7e 3f 96 b5 5a bd fe d8 0f 3e
       -0.45340136 0.99488145 -0.05339583 0.1404762
0002d0 24 f4 02 3c b4 2f 82 3f 74 18 41 bd 37 92 69 bf
       0.007992778 1.0170808 -0.04714246 -0.9123873
0002e0 5e a6 48 bd 00 73 68 3f 67 b6 db 3d 9c bc 11 40
       -0.048986785 0.90800476 0.1072815 2.2771368
0002f0 31 34 44 3e 04 6e a3 3d be ee 65 bf 68 84 35 3d
       0.19160534 0.07979968 -0.89817417 0.044315726
000300 39 46 42 3f 28 8d 16 c0 6d 71 9d bf 32 2a 4a 40
       0.758884 -2.3523655 -1.230024 3.1588254
000310 95 8e b5 be b6 a7 21 c0 82 ed b7 3f 78 fb 94 bf
       -0.35460344 -2.5258613 1.4369357 -1.1639242
000320 f6 6b 89 bf 13 3f 45 bf 72 ea c7 be bb 41 a0 3f
       -1.0736072 -0.7704937 -0.39046055 1.2520059
000330 ad 8d 19 bd c5 ce 5e bd cc a9 6b 3d a4 63 bb 3f
       -0.03748863 -0.05439641 0.057534978 1.4639783
000340 e7 52 91 3c ea a5 a0 bd e5 61 a3 3d 0e da 8f bd
       0.017739726 -0.078441456 0.07977656 -0.070240125
000350 fb 2e c3 bf 46 fe cc bd ec 28 0f be 38 13 91 3d
       -1.5248712 -0.10009436 -0.13980454 0.07083744
000360 81 77 e7 3c 3c 5b 85 3e 52 ee b3 3f b2 f7 67 bf
       0.028255226 0.2604617 1.4057105 -0.9061233
000370 8b 0d ac be 77 86 0b be 3b fd 26 bd 65 e8 95 3d
       -0.33604082 -0.13625513 -0.040768843 0.07319716
000380 bf 3a f0 3e f3 05 3d c0 1f 0e f7 bd 97 b8 7e 3f
       0.4691982 -2.953488 -0.1206324 0.9950041
000390 d5 e2 87 3c 66 d4 ba bd 96 6a 4b bf 17 0d 85 bd
       0.016587654 -0.09122543 -0.7945951 -0.06496637
0003a0 ec b9 ed bf b3 ae 5a 40 d7 43 94 3e 05 f9 0b bf
       -1.8572364 3.4169128 0.28958008 -0.5467685
0003b0 d1 fc 5b 3f 76 1e 3d 3f b1 ca 43 40 4a 29 4f 40
       0.8593264 0.73874605 3.0592463 3.236895
0003c0 6f 32 56 40 35 a3 b7 3f 01 f3 19 3f e0 09 0c 3f
       3.3468282 1.4346682 0.6013642 0.5470257
0003d0 eb 40 ed bf c5 c2 26 bf c8 04 4f 3c 3b 34 80 40
       -1.8535436 -0.65140945 0.012635417 4.006376
0003e0 f4 ee bc 3d ef 41 8c 3f 7b c4 4e bf 64 55 68 bf
       0.09225264 1.0957621 -0.80768555 -0.90755296
0003f0 2d a1 e5 3f 58 7d 84 3f ad 9f e7 be f8 61 69 bd
       1.7939812 1.0350752 -0.4523901 -0.056978196

actor.mu.4.bias f4 [6]
000000 4e a8 08 bf a5 d6 f1 3e 7e 0d aa 3e 96 06 26 bf
       -0.5338181 0.47234073 0.3321342 -0.648538
000010 be fb 48 3e f1 1f 0a 3f
       0.19627282 0.5395499

actor_target.mu.0.weight f4 [64, 84]
000000 a0 e7 4e 3d 2f 59 34 3d 16 94 96 bd 85 16 9a 3d
       0.050513864 0.044030365 -0.07352464 0.075238265
000010 8d aa 8f bd 6f af 2f bd 28 33 ce 3c 97 10 2e bc
       -0.07014952 -0.042891916 0.025170878 -0.0106240725
000020 a1 40 55 3d ef 1d 28 bd a4 66 89 3b 47 ae a1 bd
       0.052063588 -0.041044172 0.004193144 -0.07894569
000030 17 97 a2 bd 6f 6b b2 3d e3 4f 80 bd a2 df 60 3c
       -0.07938974 0.087118976 -0.06265237 0.013725193
000040 2c 86 87 3d f3 a5 6d bc 8a ed 6f 3c b5 dc 80 bd
       0.06617388 -0.014504897 0.014644036 -0.062920965
000050 0c 31 04 3d 69 cf ce bc 0f c2 22 bd b3 f2 74 3d
       0.032273337 -0.025245385 -0.03973585 0.05980177
000060 b6 3f 96 bc 50 66 43 3d a1 c1 cc bc eb e8 69 bd
       -0.018340927 0.047704995 -0.024994673 -0.057106894
000070 1b 4b 69 bd 24 f8 77 bd 19 f7 c4 bd 23 fb ea bc
       -0.05695639 -0.06053938 -0.09617443 -0.028684204
000080 0a df 67 3d dd 47 8e bd eb 8e f8 3c fd 04 89 bd
       0.05660919 -0.069473006 0.030341586 -0.066904046
000090 b9 1e c1 bd 29 fc d2 3d 0e e6 9c bd 87 39 29 bd
       -0.09429688 0.10302002 -0.07661067 -0.041314628
0000a0 2b ce e2 bd 4a 5c d0 bd 36 0a a1 3d b0 5a 3a bc
       -0.1107448 -0.10173853 0.07863276 -0.011374161
0000b0 ed 4c 83 bd 41 13 5b 3d 9f 83 35 3d 0d a8 85 bd
       -0.06411157 0.05348516 0.044314977 -0.06526194
0000c0 07 59 2a bc a8 29 c1 3c 64 34 08 3c c5 60 97 3d
       -0.010397202 0.023579434 0.008313272 0.07391504
0000d0 b7 d4 2b bd 6f 9d 32 3d c8 8d 4e 3d 59 2f c5 bd
       -0.041950908 0.04360717 0.050428182 -0.096281715
0000e0 c7 b8 b2 3b 07 48 b1 3c 1d 7d 9b 3d 05 ba 1e 3d
       0.005454156 0.02164079 0.07592223 0.03875162
0000f0 1a c8 69 3d e1 df 48 bc 6d 44 93 3d 59 fa d1 3c
       0.057075597 -0.012260408 0.071907856 0.02563207
000100 4a 18 53 bd a5 72 07 bd d0 29 cb 3d 5e 4e 28 3d
       -0.051536836 -0.033068318 0.099200845 0.04109036
000110 18 37 cb 3a 96 42 ae 3d 62 bb e5 3b a5 3f 03 bd
       0.001550409 0.08508794 0.007010863 -0.032043118
000120 96 39 a3 3d af 4d b8 3d eb cc 76 3d a2 77 d0 bd
       0.07969968 0.08999192 0.06025402 -0.10179068
000130 df 54 a9 bc 8e 6b 26 3d dc cd 00 3c fd b2 9e 3d
       -0.020670353 0.040629916 0.007861581 0.07748983
000140 ea fc d5 bd 10 c1 b7 bd 58 c1 b5 bd b5 2e 04 bd
       -0.1044863 -0.089723706 -0.08874768 -0.032271106
000150 34 89 d0 3c 0a fc 97 bd 2f b0 97 3d c6 8e d0 bd
       0.025456049 -0.074211195 0.07406651 -0.10183482
000160 e9 e9 a9 3d 4e 12 d0 bd d1 e0 97 3d 2f da 96 bd
       0.08296568 -0.10159741 0.07415927 -0.07365834
000170 76 07 86 bd 80 76 c9 ba ea d4 11 3d 10 dc c5 3b
       -0.06544392 -0.0015370399 0.03560344 0.0060381964
000180 70 2d e5 bc 0a 02 9d bd 84 3e 86 bd e3 61 59 bd
       -0.027975768 -0.076664045 -0.06554893 -0.053071868
000190 72 0a 68 3d 2c f3 a4 bd 58 39 28 bd 42 2d 3d bd
       0.056650586 -0.08054194 -0.041070312 -0.04618574
0001a0 78 f8 31 bc 28 22 33 3c 2e 58 2c bd 72 f3 c7 bd
       -0.010862462 0.010933436 -0.042076282 -0.097632304
0001b0 a4 55 d2 3c 0a 97 68 3d 71 e4 d6 3d 42 2d 70 3d
       0.025675602 0.056784667 0.104927905 0.05863691
0001c0 a7 3a 8c 3d 3c f0 72 bd 39 88 cd bd 1e b1 c7 bd
       0.068471245 -0.059311137 -0.10035748 -0.09750579
0001d0 94 e5 b7 3c e6 6c 4a bd 70 0a 90 bc 81 f4 ae 3d
       0.022448339 -0.04942026 -0.017583102 0.08542729
0001e0 54 56 9b 3c de 10 1f 3d 72 c3 3c 3d 9c 92 c0 3c
       0.018962063 0.038834445 0.04608483 0.023507409
0001f0 d2 69 72 3d 20 a1 73 bb 7e a1 80 bd ac 49 a9 bd
       0.05918295 -0.0037174895 -0.06280802 -0.08266005
000200 c8 d1 8d bd 08 fe 9e bc 08 fd 1a bc 12 c1 86 bd
       -0.06924778 -0.01940824 -0.009459741 -0.06579794
000210 05 46 96 3d cd 25 d3 bd a4 f5 f2 3c ad 4e 6d bd
       0.07337574 -0.10309944 0.029658146 -0.05793636
000220 f0 95 9d bc 4a a4 dd 3d 3f 92 82 3d 9a 4a 2a bd
       -0.019236535 0.10822351 0.063755505 -0.04157505
000230 bc 8c c1 3c de 91 1c bd 20 c9 5b 3b 7a 93 ce bd
       0.023626678 -0.038225047 0.0033536628 -0.10086723
000240 60 88 a9 bb df 25 de 3d a2 88 6f bd f2 a3 39 3d
       -0.005173728 0.10847067 -0.058479913 0.045322366
000250 cd e0 db 3d 8c ce a7 bd 60 d7 27 bb fa 36 5a 3d
       0.10736237 -0.081936926 -0.0025610551 0.053275086
000260 a8 2b 48 3c 1e 81 27 3d 45 20 bd 3d 50 a8 2e bd
       0.01221744 0.04089462 0.092346705 -0.042640984
000270 02 65 0c bd b8 54 b8 3d cc 8d 81 bd 18 17 6a bd
       -0.034276016 0.09000534 -0.06325874 -0.05715093
000280 77 51 91 3d bc 0e d7 bc b6 3b 02 3d a4 1e d8 3c
       0.07095616 -0.026252143 0.031795226 0.026381798
000290 fa 4a 2c bd e9 31 93 3d 39 e7 88 3d 28 5c 53 bc
       -0.04206369 0.07187254 0.06684727 -0.01290039
0002a0 b8 85 d8 bc 5c 4b dc 3c 86 92 17 bd f0 d7 81 bc
       -0.02643095 0.026891403 -0.03700497 -0.015850037
0002b0 e2 22 42 3d dc 36 eb bc 27 48 a3 3d 75 b8 85 3d
       0.047396548 -0.028712682 0.07972746 0.06529323
0002c0 32 9c 76 bd 1d 15 4c bd 70 74 e3 bc 73 cf a3 3d
       -0.060207553 -0.049824823 -0.027765483 0.07998552
0002d0 40 7a 59 bc 04 af d2 bd 73 12 c0 3d 97 f5 4d bd
       -0.013273776 -0.10287288 0.09378519 -0.05028304
0002e0 e6 18 68 bd 82 66 c0 bd 9a 48 59 3d 8c 42 c2 bc
       -0.05666437 -0.09394552 0.053047754 -0.023713373
0002f0 68 ab af bc 2a bb 5c 3d e0 03 15 bc c4 ff 3a bd
       -0.021444038 0.05388943 -0.009095162 -0.045654073
000300 f4 fe ca 3c 2a ba 9b bd 40 79 f4 bc c2 0f 55 3d
       0.024779774 -0.07603867 -0.029842973 0.05201698
000310 22 6f 19 3d 13 70 a2 3d 1b c3 9d 3d 82 18 2f 3d
       0.0374595 0.07931533 0.07703229 0.04274798
000320 7e ef 72 3d 1c 1f 48 bd 7c 4c c1 3c e6 15 18 3d
       0.05931043 -0.048857793 0.02359604 0.03713026
000330 98 ea db bd 54 2c 98 bd f5 f8 0d 3d 04 8e b5 3c
       -0.107381046 -0.0743033 0.034661252 0.022162445
000340 f2 5e bb bd 38 7d 18 bd 1c 0e f8 bc 52 bf 15 3d
       -0.09148969 -0.037228793 -0.030280165 0.03655941
000350 64 51 8c bd 7f d2 bd 3d 7f c8 c5 3d 50 51 d6 bd
       -0.068514615 0.092686646 0.09657382 -0.10464728
000360 8a eb c0 bd 40 03 73 3c 1c ca ff bc 01 22 9e bd
       -0.094199255 0.014832318 -0.031224303 -0.077213295
000370 58 2d 47 bc fd aa 67 bd 10 1c a1 3b 87 7f be bd
       -0.012156807 -0.05655955 0.0049166754 -0.09301668
000380 00 57 21 bb c1 db b1 3d 5a 7f 0a 3d a8 7e 30 bd
       -0.0024618506 0.08684493 0.03381286 -0.04308954
000390 c1 da 89 3d 07 63 aa 3d 95 89 9f 3d c2 49 c4 bd
       0.06731177 0.08319669 0.077899136 -0.09584381
0003a0 35 6b d6 3d e7 32 95 3d 00 53 f5 bb 47 fb ad 3d
       0.10469667 0.072850995 -0.007486701 0.08495193
0003b0 29 ff 52 bd 1e 7d 8b bd 9b 62 97 3d d4 c1 82 bc
       -0.05151287 -0.068109736 0.073918544 -0.015961565
0003c0 b0 b2 ff bc 48 9a 9f bd 88 e5 3d bd 2e 47 25 bd
       -0.031213135 -0.07793099 -0.046361476 -0.040351085
0003d0 88 c0 60 bd a1 29 47 bd c0 5e 2b 3c 27 97 c7 3d
       -0.054871112 -0.048623685 0.010459602 0.09745627
0003e0 5d 66 91 3d 02 61 4b 3d a1 64 8b 3d d2 4e 2b 3d
       0.07099602 0.04965306 0.06806303 0.041823216
0003f0 37 49 bc 3d 2c b5 7b bd c5 21 95 3d 8f 55 b2 3d
       0.09193652 -0.061452076 0.07281832 0.08707725

actor_target.mu.0.bias f4 [64]
000000 72 ce 60 38 ea 30 17 bd 94 04 9c bd 87 18 3b 3c
       5.359803e-05 -0.036911882 -0.07618061 0.011419422
000010 32 a2 5e bd 2a b4 03 3d 48 9c 3d bd 0e d8 2f 3d
       -0.0543539 0.03215424 -0.04629162 0.042930655
000020 8f 4b a3 bd 1b cc e0 bc 67 4d 3a 3d bf 97 ae bb
       -0.07973396 -0.027441075 0.045483973 -0.005328148
000030 e4 9d 81 3c 32 2e e9 3b 4d 6a a6 3d 75 05 0e be
       0.015822358 0.0071161026 0.08125744 -0.13869269
000040 a4 22 8c 3d ac 49 f6 bc 94 dd a0 3c 0d 28 92 3d
       0.06842545 -0.030064426 0.019636907 0.07136545
000050 16 70 9c bd 1f d6 3a 3d ef 21 38 3d 01 71 5b 3d
       -0.07638566 0.045614358 0.044954237 0.053574566
000060 ce 3e 22 3c 8f 0c 0c 40 4d 22 b5 bd a0 35 42 3d
       0.009902669 2.1882665 -0.08844433 0.047414422
000070 3c 88 70 bc c0 e4 4f 3d 0e 1f 20 3d f7 04 25 bd
       -0.014680918 0.050755262 0.039092116 -0.040287938
000080 bb 47 e8 bd 4d 77 0a bd fa 23 d6 bd bb 33 7c 3d
       -0.113418065 -0.03380518 -0.10456081 0.06157277
000090 e4 26 04 3d f3 e3 eb bc 6b 36 f4 3c 3d 4b 8f bd
       0.03226365 -0.028795218 0.029811105 -0.069967724
0000a0 20 2c 4e 3d e5 32 02 bd 1b b0 d9 3d ed 5f 04 bd
       0.05033505 -0.031786818 0.106292926 -0.032318044
0000b0 cb e4 e5 bd 72 42 6f 3c 80 a9 f7 3a 18 ab 15 bd
       -0.112252794 0.014603244 0.001889512 -0.03654012
0000c0 f2 85 38 3d af 29 be 3c ea 3f 8d 3f b8 62 eb bc
       0.045049615 0.023213236 1.103513 -0.028733596
0000d0 e0 ea d9 3e 31 3c 56 3c 6f 57 ad bc 6a 29 d9 bd
       0.42562008 0.013075874 -0.021159856 -0.10603602
0000e0 0e 7a 15 3d fe 5e 93 bd 4d e5 00 3d 79 4d cd bc
       0.036493354 -0.07195853 0.03146868 -0.025061356
0000f0 8a a1 6b 3d e9 88 c7 bd ae 4d 1f bd f8 f6 29 bc
       0.057527103 -0.097429104 -0.03889244 -0.010373823

actor_target.mu.2.weight f4 [64, 64]
000000 2c 40 82 bb 20 71 5d 3c 1c 3e b0 3d fe 72 98 3d
       -0.003974935 0.013515741 0.086055964 0.07443808
000010 79 5e df bc 62 80 c3 bd a8 c4 bc bc 61 aa d3 3d
       -0.027266728 -0.095459715 -0.023042992 0.103352316
000020 5c fe 7a 3a e4 73 0c 3e 00 4e cc 3d 37 91 30 bd
       0.00095746457 0.13716084 0.09975815 -0.043107238
000030 30 db 33 3c 28 91 cf bd 36 28 fb 3d 82 5a 65 3d
       0.010977551 -0.10135108 0.12263529 0.055994518
000040 7a 12 5b bd 5c 25 81 bd e8 48 68 bd 32 a7 d9 3d
       -0.053484417 -0.06305954 -0.056710154 0.10627593
000050 59 2a 4a 3d 6f a5 a0 3d 50 08 ce bc 92 3b e0 3d
       0.049356792 0.07844054 -0.025150448 0.10948862
000060 7c f1 85 bd f7 29 e6 3f 60 07 f5 3b b8 29 3b bd
       -0.065402 1.7981557 0.007477686 -0.045694083
000070 a8 d9 45 3d 79 e0 c1 3d 85 13 8e bc 11 0f dd bd
       0.048303276 0.09466643 -0.017343292 -0.10793889
000080 7c 3b 82 bd f5 69 90 3d 25 a8 15 3e 4e 00 22 bb
       -0.06359002 0.0705146 0.14614923 -0.002471942
000090 b3 18 77 3d bf a7 a3 bc f7 35 3a bd 0d 4a 04 3c
       0.06032629 -0.019977449 -0.04546162 0.008074296
0000a0 b9 78 cb bb 94 7c 83 3d 08 50 96 bc 79 1e 59 bb
       -0.0062094596 0.06420246 -0.018348709 -0.0033129735
0000b0 0f 9d 3d 3d 42 cf dd 3d 70 b3 20 bd d8 e0 0f bd
       0.04629236 0.10830547 -0.039233625 -0.035126537
0000c0 78 ec 36 bd 5e d4 9a bc 69 28 28 3f a2 fe cc bd
       -0.044659108 -0.018900093 0.6568666 -0.10009505
0000d0 5e 1e 87 bf a0 bc b8 bd 03 66 61 3d 47 0d a7 bd
       -1.0556142 -0.09020352 0.055028927 -0.08156829
0000e0 54 c7 26 bd 10 cd ce 3d 60 b9 97 bb 22 97 ea 3d
       -0.040717438 0.10097706 -0.0046302527 0.114546075
0000f0 d0 00 bd bd 02 ac 66 3d 5f 41 bf 3d ce a6 b7 3d
       -0.092286706 0.056316383 0.093386404 0.08967362
000100 04 28 fc 3d c2 cd 57 3d d0 1e 10 3c a5 4c 9e bd
       0.1231232 0.05268646 0.008796409 -0.077294625
000110 3d 45 90 bd 1c 4a 0b bd 81 90 dc 3d eb c1 7c bd
       -0.07044456 -0.034006223 0.107697494 -0.061708372
000120 ae 44 94 bd 06 9e ab 3d af 97 34 3b 03 16 e6 bc
       -0.07239662 0.0837975 0.002755623 -0.028086668
000130 34 96 d7 bd ce 1f 23 bc c0 15 73 3b ac d8 f3 bd
       -0.10526696 -0.009956313 0.0037091821 -0.11906561
000140 88 f1 4d 3d 0c 13 70 3d 4a 8c e3 bd 14 fd 1e bd
       0.05027917 0.058611915 -0.111107424 -0.038815573
000150 63 e5 77 3d 50 5d b8 3d d8 cd 9b 3c 81 07 de 3d
       0.060521495 0.09002173 0.019019052 0.10841275
000160 4c 19 70 3d 90 85 30 c0 f8 12 c0 bc ff a1 a5 bd
       0.058617875 -2.758152 -0.023446545 -0.08087539
000170 e1 1a 54 3d 83 5b e9 3c 9d ab 8d bb 07 97 28 3d
       0.051783446 0.028486019 -0.0043234364 0.041159656
000180 8f 99 af 3d ec 03 8b 3d a1 73 c0 bd 62 e3 d6 bd
       0.08574211 0.067878574 -0.093970545 -0.104925886
000190 dd 58 07 be 6f be 20 bd c5 f7 82 3d 36 1f aa bd
       -0.13217492 -0.03924411 0.063949145 -0.08306734
0001a0 9d 3e 82 bd d6 0e a7 3d f8 59 d9 3d 65 ff 94 bd
       -0.06359599 0.081571266 0.10612863 -0.07275275
0001b0 32 32 e0 3a 8a 1f d7 3d 00 12 82 3d 08 f7 31 3a
       0.0017104803 0.105040625 0.063510895 0.00067888247
0001c0 38 f3 c0 3c 6c e4 89 3c 02 e3 52 3f f4 5d be 3d
       0.023553476 0.016832553 0.82377636 0.09295264
0001d0 2d 24 9a bf c7 17 b8 3d d7 f6 aa 3d 1d fa 1b 3d
       -1.204229 0.0898891 0.08347862 0.038080323
0001e0 68 27 b0 3d 44 6e 02 3d f0 b9 01 bd 71 6c cf bd
       0.08601266 0.03184344 -0.031671464 -0.101281054
0001f0 79 ca cd 3d 40 ba 3b bd 38 56 be bb e8 f5 f0 3d
       0.10048384 -0.04583192 -0.005808618 0.11765653
000200 be 03 1d bd a0 3b d2 3c b8 68 f8 bc 5a fe 61 3d
       -0.038333647 0.025663197 -0.030323371 0.05517421
000210 04 4a 87 3d 70 45 30 bd 5d 7e 07 be ee 8b 1e 3d
       0.06605914 -0.04303497 -0.13231798 0.038707666
000220 30 f5 cc 3d e5 65 06 be 2a a7 dc bd 4b c4 79 3d
       0.10007703 -0.13124807 -0.107740715 0.060978215
000230 70 8b 7b bc b0 4f 91 bd 40 cd fb 3d 53 62 e5 bd
       -0.015353069 -0.07095277 0.12295008 -0.112003945
000240 b0 ba c3 3d 17 1f b6 3d cc 1a f1 3d e7 53 3b bd
       0.09557092 0.08892649 0.11772689 -0.045734312
000250 82 e6 56 bd af 29 a5 bd db 42 fa 3c 59 33 d5 3d
       -0.052465923 -0.08064591 0.030549457 0.104101844
000260 08 00 0b bd 9f cb ee bf ac 5d cb 3d ff 15 34 3b
       -0.033935577 -1.865589 0.09929976 0.002747893
000270 97 2a 32 3d 98 2e c2 3d bd 68 08 bd 6c c4 86 3d
       0.043497648 0.09481543 -0.03330301 0.06580433
000280 95 20 8a bd 23 06 e5 bc 05 38 8a bd 65 ca 88 bd
       -0.06744496 -0.027957028 -0.06748966 -0.06679229
000290 92 e4 e1 3d 1a 97 ed 3b fd d0 00 bc 85 a4 93 3d
       0.110299245 0.0072506787 -0.007862327 0.07209114
0002a0 0c 1c 8c bd 46 b5 24 3d 20 65 74 bd fd ee 14 3d
       -0.06841287 0.04021194 -0.059666753 0.03636073
0002b0 d5 6f 02 be 74 9c cb bd 90 7c 0b 3c f8 63 66 3d
       -0.12737973 -0.099419504 0.008513585 0.05624768
0002c0 60 92 0b 3c 50 29 b0 bd c9 2c b3 be 68 b3 9c 3c
       0.008518785 -0.0860163 -0.34995106 0.019128516
0002d0 43 3e ea 3e 43 2f e7 3c 97 53 27 bd 1f 68 ab bc
       0.45750627 0.028220778 -0.0408512 -0.020923672
0002e0 40 e7 55 3c 8b 73 62 bd 60 c1 ed bd 47 d6 2b bc
       0.013055623 -0.05528597 -0.11609149 -0.010488099
0002f0 98 d3 b3 bd 8b d4 ef bc 78 4b c5 3d 40 b8 aa 3d
       -0.08780593 -0.029276153 0.09633535 0.08335924
000300 d7 65 be bc 02 b8 e5 bd 40 1e 22 3c de ed 1c 3d
       -0.02324192 -0.11216737 0.0098949075 0.038312785
000310 08 96 bd 3c 5c 75 bf 3d a5 34 89 3c 40 e4 6c bd
       0.02314283 0.093485564 0.016748736 -0.057834864
000320 e6 f9 17 3e 8d 11 9c 3d eb c8 ff 3d ad 97 02 3e
       0.14841422 0.07620535 0.12489494 0.12753172
000330 3e 34 e6 3d 8e c2 8c bd a8 d5 f6 3c 65 03 8c bc
       0.11240433 -0.06873046 0.030131176 -0.017091462
000340 5b 81 e1 3c f5 46 81 3d 8c f5 05 3d d4 ff 5c 3d
       0.027527502 0.06312362 0.032704875 0.053954914
000350 e8 4b 34 3e 15 70 83 3d c1 be cd 3d f7 d9 27 3e
       0.17607081 0.06417862 0.10046149 0.1639174
000360 ce d6 aa bd 55 09 81 bf b2 18 ac 3d e0 b9 46 bd
       -0.08341752 -1.0080973 0.08403148 -0.048517108
000370 31 1e db bc b5 80 87 3b 85 8e 1f bd 5d 70 9a bd
       -0.026747795 0.004135216 -0.038954277 -0.07540963
000380 d0 1c c2 3d a9 55 5b bd dc c2 06 3e da ab dc 3d
       0.09478152 -0.05354849 0.1316027 0.107749656
000390 ed 72 05 3e 82 88 ee bc c7 da bd bd 65 a5 8a 3d
       0.13032122 -0.029117826 -0.09270244 0.06769828
0003a0 10 4f 31 bd 14 d5 07 3e 94 7d 2d 3d 3a 68 54 3c
       -0.04328829 0.13264877 0.04235609 0.012964303
0003b0 28 72 37 3e 8e 6d 95 3d 20 1f e1 3b 48 73 f1 bc
       0.17914641 0.072962865 0.0068701655 -0.029473916
0003c0 3e ba f2 3d d1 aa c2 3c 35 06 93 bf 2e 98 98 3d
       0.11851929 0.023763092 -1.1486269 0.07450901
0003d0 a3 21 1f c0 bc f1 06 3d 0f ae b6 bd c7 3d a1 bc
       -2.486428 0.03294538 -0.08919918 -0.019682778
0003e0 e0 bb 1c 3d 74 c7 8f 3d d0 dd db bd fc cd f4 39
       0.03826511 0.070204645 -0.10735667 0.00046692777
0003f0 2c 29 0a bd 3f b5 a7 3c 5f 79 be 3d 4e ed 9c 3d
       -0.03373067 0.020472167 0.093004934 0.0766245

actor_target.mu.2.bias f4 [64]
000000 da 03 11 be b7 7b 89 be 4e 65 cb 3f 91 f6 ed 3f
       -0.14161626 -0.268522 1.5890291 1.8590871
000010 5a ba 58 3f 37 97 25 3f 1d 7a 94 3e 00 cc ab 3f
       0.8465935 0.6468386 0.28999415 1.3421631
000020 e3 69 d8 3f 1f 98 b1 3e d8 d8 f0 3d 61 8c 1f bf
       1.6907314 0.34686372 0.1176011 -0.62323576
000030 b5 28 85 bd 37 5e 00 c0 80 f0 8a bd 4d 76 5b bf
       -0.06501905 -2.0057504 -0.06784153 -0.8572739
000040 3a ff 58 bc ac 82 7b bd fc 9a f0 bc cb 8f ef bd
       -0.0132444445 -0.061403915 -0.029370777 -0.11697348
000050 11 71 b3 3e 8f 4b 23 be f8 c4 37 bc de bf 93 bd
       0.350472 -0.15946792 -0.011216395 -0.0721433
000060 06 dc 10 bc 67 ce 31 3d 8d 8a 7b bf 89 3b d2 bf
       -0.00884152 0.04340973 -0.98258287 -1.6424419
000070 5e 44 ce bf 38 f5 b2 3e ab 15 6e bb 97 02 a8 bd
       -1.6114614 0.34952712 -0.0036328833 -0.08203619
000080 77 ba 23 3d ed 07 36 3f 08 bb bb bd 4d af ce 3c
       0.03997275 0.71105844 -0.09166533 0.025230074
000090 a5 fd 0d bd c6 de 1b bd 58 bd 04 3e 82 f8 53 bb
       -0.034665722 -0.03805425 0.12962854 -0.0032344167
0000a0 7b 90 88 3f 32 e8 96 3f 59 b1 a7 3f 9a d6 99 3f
       1.0669092 1.178961 1.3100997 1.2018616
0000b0 52 5d 82 bf f1 16 25 3f dd 41 ad bf 47 95 88 3d
       -1.0184729 0.6448813 -1.3535725 0.066690974
0000c0 f2 f2 52 bf cd 76 1f 3d 78 25 8b be 71 aa 4b bf
       -0.82401955 0.038931657 -0.27177024 -0.7955695
0000d0 e3 41 5c bf b3 8b 7f bf ae 00 97 bd f1 12 23 bf
       -0.86038035 -0.9982254 -0.073731765 -0.6370078
0000e0 ce 4f 1b be 99 e1 31 bf b6 81 d6 3e c2 aa aa 3f
       -0.15167162 -0.6948486 0.41895837 1.3333361
0000f0 63 1a d0 bf fc 84 b1 bf 0a 10 ad 3f b4 e2 ff bb
       -1.6258053 -1.3868709 1.352052 -0.0078090075

actor_target.mu.4.weight f4 [6, 64]
000000 72 4d 2b 3e 04 13 61 bf d9 0f a8 bf f2 cc 03 40
       0.16728762 -0.8791964 -1.3129836 2.0593839
000010 98 a1 83 bf 0c 48 e5 3f 48 a7 89 bf 22 94 a0 bf
       -1.028369 1.7912612 -1.0754175 -1.2545207
000020 7a c5 33 bf e2 0c 9a 3f f8 c7 83 3e 6b 7c 23 40
       -0.702232 1.2035182 0.25738502 2.5544689
000030 d6 f8 19 3e 68 83 ae bf 06 d3 fd 3d 58 68 82 40
       0.1503633 -1.3633852 0.12393765 4.0752373
000040 b2 d2 58 bd 9e 76 8a bd 35 b6 95 3d 70 e0 c4 3d
       -0.05293531 -0.06760906 0.07310144 0.096131206
000050 a0 00 fb 3e 31 9c 5f bd 4a a8 6d bd 43 c7 6f 3d
       0.49023914 -0.054592315 -0.05802182 0.05853964
000060 18 cd 4b 3c 30 ba 60 be 82 95 85 40 1e b2 de be
       0.012439035 -0.21946025 4.1745005 -0.43495268
000070 85 e5 29 3f f9 be 24 bf d8 bc bc bd 45 21 13 bd
       0.66365844 -0.643539 -0.092157066 -0.0359204
000080 18 28 36 be 9f 96 18 40 d8 e3 c2 bc 13 8c 00 bf
       -0.17788732 2.3841932 -0.023790285 -0.50213736
000090 1e 1e 2f bd d6 8d af bc 53 d9 be bf a8 8a 35 bd
       -0.04275333 -0.021429937 -1.4910072 -0.044321686
0000a0 39 e6 6a 3f 74 d7 27 c0 95 c1 f7 bf 2b df 74 bf
       0.9175754 -2.6225252 -1.9355952 -0.9565303
0000b0 39 2d a9 3e 5a c7 ca 3f de ca b3 3f 4f 03 0d c0
       0.33042315 1.5842087 1.4046285 -2.203327
0000c0 21 3f da bd af c4 90 40 6d 73 cf be c1 f8 e7 bd
       -0.10656572 4.524009 -0.4051775 -0.11326743
0000d0 ce 90 bc 40 41 b8 8d bf 44 70 8a bd ac f2 0e 40
       5.8926764 -1.1071855 -0.06759694 2.2335615
0000e0 d5 f3 1e bd 91 e6 52 bf 43 33 dd be 2b a3 03 bf
       -0.038806755 -0.82383066 -0.43203172 -0.5142085
0000f0 78 8a 9d 3f 10 40 17 3e ef 79 3c 40 30 e9 35 3d
       1.2307882 0.14770532 2.9449422 0.044411838
000100 44 88 c8 40 7d 8e 45 c0 7c f3 d9 3f eb bd bd bf
       6.266634 -3.0868218 1.702743 -1.4823583
000110 65 4b 95 3e 63 d6 59 3f 86 a8 93 bf 67 b5 4c 3f
       0.29159084 0.85092753 -1.1535804 0.799643
000120 b0 57 fa 3f a9 bc 2f c0 8a 8f 32 3f d7 0c 19 3f
       1.955801 -2.74589 0.69750273 0.5978522
000130 16 d1 10 3d e4 01 ba 3f 12 11 9b 3d 95 1d fe be
       0.03535565 1.4531827 0.07571615 -0.49631944
000140 f0 91 cf bc e0 1a 08 bd 72 ac d5 3d af e1 b0 3b
       -0.025338143 -0.033228755 0.10433282 0.0053979973
000150 00 30 14 c0 54 f4 07 bd b0 c4 b9 3d 56 a7 18 3e
       -2.3154297 -0.033191994 0.09070718 0.14907584
000160 b5 8a 96 bd 69 34 34 3f 53 f7 d1 bf 15 0f 84 c0
       -0.07350675 0.7039247 -1.6403602 -4.126841
000170 01 d7 ca 40 df df 31 3e 9c 9e 0b be 45 1d 03 3e
       6.3387456 0.17370556 -0.13634723 0.12804134
000180 d8 19 6a 3f 14 5f f6 c0 b6 d0 9b 3c 13 b0 05 bd
       0.91445684 -7.699106 0.01902042 -0.03263862
000190 3e 84 ab bc 2b 65 e7 3d d4 0b 83 bf a3 c2 69 3d
       -0.020937081 0.11298593 -1.0237985 0.057070386
0001a0 85 fa 78 c0 2f 61 e5 bf 10 c6 e1 bf ec e4 d1 3f
       -3.8902905 -1.7920283 -1.7638569 1.6397986
0001b0 53 13 9e 3f 2d a9 7c be 4e b8 69 40 1d 5e 4c c0
       1.2349647 -0.2467391 3.651874 -3.1932442
0001c0 0f 99 12 bf f0 66 61 bd 0c df fa 3c 5c f6 7d bf
       -0.572648 -0.05502981 0.030623935 -0.9920404
0001d0 33 a3 ce 3f ce 39 ea bf a5 16 0e 3e cf 06 0e bf
       1.6143554 -1.829889 0.13875826 -0.5547914
0001e0 d4 89 86 bc 4f b5 02 3f 7b 88 d3 3f 26 c8 07 3f
       -0.016423143 0.51057905 1.6526026 0.5303978
0001f0 f7 b7 f0 bf 4f db 10 be b6 bc 4c bf 49 f4 58 bb
       -1.8806142 -0.1414616 -0.7997545 -0.003310459
000200 e3 35 95 bd 9b e7 2a 3f c7 d5 44 bf 27 27 93 c0
       -0.07285669 0.6675965 -0.768887 -4.5985293
000210 0d d0 66 bd 68 99 c4 be 83 e5 7d bf 86 b9 08 3e
       -0.056350756 -0.3839829 -0.9917833 0.13352022
000220 97 54 8b 3f c2 40 75 3f 9d 61 c2 3d 9a bd 4a bf
       1.088519 0.9580194 0.094912745 -0.7919556
000230 4a f2 e9 3b c9 37 54 3f 84 01 77 bd 66 9a 91 bf
       0.007139479 0.8289762 -0.06030418 -1.1375244
000240 5a 81 61 bd a4 82 8d 3d d5 0a 97 bd 06 8b 11 3a
       -0.055055 0.06909683 -0.07375113 0.0005552027
000250 89 8d 8c 40 82 94 ec bd ad 8b 9d 3d a5 b3 91 3d
       4.3922772 -0.11551763 0.07692657 0.071143426
000260 33 9b f4 bc ac 0e 81 be d3 1e 00 3f b0 32 c1 3f
       -0.029859161 -0.25206506 0.50047034 1.5093594
000270 1d 58 84 40 17 36 2a bb 89 82 53 bd f1 f9 c6 bd
       4.135756 -0.0025972181 -0.05163816 -0.09715641
000280 59 6c c0 bd d6 d0 da 3f f2 67 56 bc 42 f3 91 3f
       -0.09395666 1.7094982 -0.013086306 1.1402361
000290 f7 f8 a6 bd 02 11 eb 3c c4 92 ce bf 25 0d 81 3c
       -0.08152955 0.028694633 -1.6138539 0.015753338
0002a0 0b 9a dc 3e e1 eb 1e bf c7 ff 50 c0 53 6a 2d 3e
       0.43086275 -0.6207867 -3.2656114 0.1693509
0002b0 2c 1d 52 3f 8a da 10 3f b5 25 98 3f a4 c8 8e bd
       0.8207576 0.56583464 1.1886507 -0.06971863
0002c0 33 f9 e7 be 22 5d 7d 3f 8e 70 52 bd 05 8e 0f 3e
       -0.4530731 0.98970234 -0.05137687 0.1401902
0002d0 09 e8 39 bb 91 2d 82 3f 79 18 41 bd 2b f0 6d bf
       -0.0028367063 1.0170156 -0.04714248 -0.9294459
0002e0 11 a6 48 bd 27 78 68 3f c6 67 c4 3d a8 08 11 40
       -0.0489865 0.9080834 0.09590106 2.2661533
0002f0 2c fa 43 3e f7 4a a3 3d d0 3b 69 bf 2f 85 35 3d
       0.19138402 0.07973283 -0.9110689 0.044316467
000300 72 3d 47 3f 12 df 13 c0 85 7d 9a bf f4 61 4c 40
       0.77828133 -2.3104901 -1.2069556 3.1934786
000310 73 54 ac be 93 98 22 c0 15 f5 b8 3f 57 9b 92 bf
       -0.3365818 -2.5405624 1.4449793 -1.1453656
000320 1a 8a 7d bf 47 58 42 bf 97 7c cb be e8 b6 a3 3f
       -0.9903885 -0.7591595 -0.39743492 1.2790194
000330 cd 8d 19 bd c5 f7 17 bd cc a9 6b 3d 45 0e be 3f
       -0.037488747 -0.037101526 0.057534978 1.4848105
000340 c6 52 91 3c ea a5 a0 bd 6f 61 a3 3d 6d d9 8f bd
       0.017739665 -0.078441456 0.07977568 -0.070238926
000350 99 bd bf bf 90 fe cc bd dd 28 0f be 7d 13 91 3d
       -1.4979736 -0.100094914 -0.13980432 0.07083795
000360 23 77 e7 3c bb a9 8c 3e 1d 92 b6 3f 29 a5 6d bf
       0.028255051 0.27473244 1.426334 -0.9283014
000370 47 38 8b be 88 75 d0 bd a6 fd 26 bd fd e8 95 3d
       -0.27191374 -0.10178667 -0.04076924 0.073198296
000380 0c b2 f5 3e 45 df 37 c0 c4 0d f7 bd 8d 53 82 3f
       0.479874 -2.8730023 -0.120631725 1.0181748
000390 5d e2 87 3c c8 d3 ba bd 3a fc 4c bf 5c 0d 85 bd
       0.01658743 -0.09122425 -0.8007237 -0.06496689
0003a0 5c e3 ea bf 74 75 5f 40 3b a6 9f 3e 9d 6a 08 bf
       -1.8350635 3.4915438 0.3118151 -0.5328768
0003b0 8a 5e 50 3f b3 1f 4c 3f a6 23 45 40 e8 47 4d 40
       0.81394255 0.7973587 3.0803008 3.2075138
0003c0 3a d0 57 40 53 27 c0 3f 93 54 1c 3f d1 81 03 3f
       3.3720841 1.5012001 0.6106655 0.5136996
0003d0 60 f4 e8 bf e6 38 31 bf 50 05 4f 3c f5 c1 7f 40
       -1.8199577 -0.69227445 0.012635544 3.9962132
0003e0 d8 ee bc 3d e6 3b 8b 3f 72 77 51 bf 3e da 64 bf
       0.09225243 1.0877655 -0.81822884 -0.8939551
0003f0 3a 51 e0 3f c2 95 85 3f f4 1f c8 be 8a 62 69 bd
       1.7524788 1.0436327 -0.39086878 -0.05697874

actor_target.mu.4.bias f4 [6]
000000 6e 0c 07 bf 6d 7a f1 3e d4 27 a5 3e 40 8e 1f bf
       -0.5275334 0.47163716 0.3225695 -0.6232643
000010 9e 20 47 3e f0 30 05 3f
       0.19446036 0.520278
